anomaly_model.pth (torch, 12356 bytes, 5 tensors)

fc1.weight f4 [64, 4]
0.018839166 0.35590172 0.39474002 0.38036346 -0.6459678 -0.08027395 -0.10199272 0.13356304
0.44273624 -0.37034222 -0.108677335 -0.113452524 -0.28763822 0.6806844 -0.7024271 0.32586792
-0.16440913 0.2979767 0.38493055 0.017882776 -0.075948864 -0.19732939 0.17726435 0.10667063
-0.09002024 -0.4516809 0.12545514 -0.08962399 0.36262763 -0.11014366 -0.39843062 0.43037105
0.0009201681 -0.19793436 -0.12098722 -0.25593102 0.51216483 0.18539672 0.22238187 0.37391368
-0.053931355 -0.32214797 -0.40247607 -0.071249485 0.12797849 -0.47662127 0.6632862 -0.22742312
0.17159009 -0.1779421 -0.49314523 0.29437876 0.12530535 0.0001231432 -0.3826337 -0.46414226
0.009986699 -0.16866207 0.00090026855 0.3661222 0.70104206 -0.14070652 -0.113682956 0.20899755
0.6698124 -0.029131161 0.014422423 0.033196595 0.38247952 -0.3416081 -0.25750357 -0.049918585
0.07651907 -0.4400589 -0.46475768 -0.3840115 -0.19239865 -0.4929062 -0.5986725 0.35804728
0.32077202 -0.29256654 -0.06663011 -0.21724081 0.4938888 -0.14842571 0.59202015 0.25744256
0.29709798 0.5771915 0.5744502 0.3801509 0.7017711 -0.3281182 -0.08492414 -0.12889552
0.32566822 -0.052609622 -0.47162646 -0.1828916 -0.25181893 -0.116488 -0.36731216 0.42395076
0.32441473 -0.013251317 -0.07454234 0.31860676 0.2442584 0.042893812 -0.21178533 0.11978405
-0.122830376 0.46791008 -0.3558177 0.02526069 0.18561569 -0.48779002 0.65821666 -0.43438786
-0.09564919 0.53775847 -0.61381906 0.25359827 -0.39914507 0.43714505 -0.352001 -0.29183453
0.11841892 -0.16178255 -0.29733363 0.33543393 0.5569314 0.4730203 0.26811203 0.31936485
0.21711704 0.35125518 -0.1558698 -0.20790435 0.37534404 0.3035254 0.33206546 -0.336683
0.5919019 0.227555 0.4532808 -0.042122334 -0.21412557 0.03135808 0.37015757 0.021067759
-0.084952116 -0.103661805 -0.18845756 -0.07961584 0.008368721 0.5082343 -0.06678263 0.34651977
0.4236139 0.48452207 0.53955096 0.2643087 0.2481553 -0.3540249 -0.19883114 -0.36103743
0.030329406 -0.15268797 -0.21124768 -0.12631756 0.025419893 -0.3776593 0.20815752 0.44119313
-0.94851714 0.32989818 0.21167222 0.00489371 0.6000029 0.3880165 -0.34829003 0.2951428
0.08757696 0.23014252 -0.21964271 -0.3784528 0.019243123 -0.08402727 0.051458813 -0.050638363
0.12988096 -0.32711667 -0.25836337 0.18010885 -0.8617736 0.2674969 0.2316724 0.16895455
0.14365947 -0.42328793 -0.41100785 -0.2920354 0.031924546 0.12354778 0.34228435 -0.14177734
-0.2796831 -0.017919421 0.29042286 -0.2565226 0.30837673 -0.3097839 0.34205884 0.22624576
-0.22105291 0.72418624 -0.7430242 -0.08465245 -0.10456902 -0.3271671 -0.37381583 0.47145468
-0.037341926 -0.37605384 -0.4344938 0.40028864 -0.9213461 -0.07436937 0.43066776 -0.41717
0.49625143 -0.12403436 -0.11075292 -0.078729525 0.21108107 0.01688797 0.36898088 0.3834493
0.07673725 0.09557593 0.12383694 0.5535597 0.32128957 -0.08157646 -0.16807912 0.5022807
-0.78237414 -0.018946694 0.03501388 0.43258443 -0.21842013 -0.04300041 -0.4286681 0.3379603
00000000: 9854 9a3c c038 b63e 5d1b ca3e 00bf c23e
00000010: 255e 25bf ab66 a4bd 8fe1 d0bd c0c4 083e
00000020: 53ae e23e 7f9d bdbe 3992 debd cc59 e8bd
00000030: 5145 93be 5541 2e3f 43d2 33bf 29d8 a63e
00000040: de5a 28be 6790 983e 9e15 c53e e67e 923c
00000050: 148b 9bbd b710 4abe c984 353e 2276 da3d
00000060: 885c b8bd b842 e7be 5077 003e c88c b7bd
00000070: 54aa b93e 0093 e1bd 19ff cbbe 9859 dc3e
00000080: 7037 713a 4eaf 4abe 26c8 f7bd 6409 83be
00000090: 3c1d 033f a3d8 3d3e 13b8 633e 9d71 bf3e
000000a0: 20e7 5cbd 94f0 a4be 5811 cebe 40eb 91bd
000000b0: cb0c 033e b407 f4be 20cd 293f 9be1 68be
000000c0: 50b5 2f3e 7436 36be 887d fcbe d0b8 963e
000000d0: 0c50 003e 0020 0139 90e8 c3be 0ea4 edbe
000000e0: 409f 233c c0b5 2cbe 0000 6c3a 5e74 bb3e
000000f0: 7e77 333f 5f15 10be 9cd2 e8bd 7403 563e
00000100: d378 2b3f 79a4 eebc 074c 6c3c 27f9 073d
00000110: 5bd4 c33e 42e7 aebe 82d7 83be 6e77 4cbd
00000120: 08b6 9c3d 664f e1be b8f4 edbe 289d c4be
00000130: 2704 45be 345e fcbe 9a42 19bf f951 b73e
00000140: 3b3c a43e 48cb 95be 5e75 88bd 6074 5ebe
00000150: fede fc3e e9fc 17be a28e 173f 83cf 833e
00000160: 3a1d 983e d2c2 133f 2b0f 133f 24a3 c23e
00000170: 45a7 333f 1cff a7be b5ec adbd 30fd 03be
00000180: fcbd a63e 307d 57bd 0679 f1be f047 3bbe
00000190: 69ee 80be 4391 eebd 5710 bcbe 1310 d93e
000001a0: b019 a63e 0d1c 59bc a8a9 98bd 6d20 a33e
000001b0: e01e 7a3e 6cb1 2f3d 41de 58be 5751 f53d
000001c0: 7e8e fbbd e991 ef3e bd2d b6be 82ef ce3c
000001d0: 0a12 3e3e 9dbf f9be e380 283f 1668 debe
000001e0: b9e3 c3bd 8aaa 093f 3f23 1dbf a2d7 813e
000001f0: be5c ccbe 7ad1 df3e 7a39 b4be 566b 95be
00000200: 9e85 f23d 53aa 25be 1d3c 98be ffbd ab3e
00000210: 0e93 0e3f b72f f23e fb45 893e ca83 a33e
00000220: ee53 5e3e b8d7 b33e 559c 1fbe e1e4 54be
00000230: 182d c03e ae67 9b3e 7c04 aa3e b761 acbe
00000240: e286 173f 2e04 693e 6c14 e83e 7888 2cbd
00000250: bc43 5bbe 5571 003d 4b85 bd3e 4b96 ac3c
00000260: 60fb adbd a44c d4bd 05fb 40be a10d a3bd
00000270: f61c 093c a51b 023f 55c5 88bd 0a6b b13e
00000280: ece3 d83e 4713 f83e 0320 0a3f 7853 873e
00000290: 6c1c 7e3e c042 b5be 649a 4bbe e6d9 b8be
000002a0: 6075 f83c 3c5a 1cbe 5051 58be 6459 01be
000002b0: 613d d03c 8f5c c1be 3f27 553e 11e4 e13e
000002c0: 05d2 72bf 6ae8 a83e 9ac0 583e 6a5b a03b
000002d0: ca99 193f 19aa c63e 1253 b2be f51c 973e
000002e0: 8d5b b33d 7baa 6b3e 05ea 60be 91c4 c1be
000002f0: c1a3 9d3c 7d16 acbd 7ac6 523d 2c6a 4fbd
00000300: 84ff 043e d67b a7be 3448 84be 746e 383e
00000310: 329d 5cbf 5bf5 883e 883b 6d3e 6c02 2d3e
00000320: 781b 133e 32b9 d8be 9f6f d2be aa85 95be
00000330: 50c3 023d 9e06 fd3d e53f af3e 142e 11be
00000340: a032 8fbe c0cb 92bc 4eb2 943e ee56 83be
00000350: 8ee3 9d3e ff9b 9ebe 5622 af3e f8ac 673e
00000360: b25b 62be 4564 393f d536 3ebf 445e adbd
00000370: 4828 d6bd 7282 a7be ca64 bfbe 8262 f13e
00000380: d9f3 18bd 218a c0be f975 debe a2f2 cc3e
00000390: 57dd 6bbf f84e 98bd 7c80 dc3e 4e97 d5be
000003a0: ab14 fe3e ba05 febd 6dd2 e2bd f23c a1bd
000003b0: a325 583e a458 8a3c 10eb bc3e 7753 c43e
000003c0: 6b28 9d3d 50bd c33d 399e fd3d 17b6 0d3f
000003d0: 1180 a43e 8f11 a7bd ef1c 2cbe 7895 003f
000003e0: ac49 48bf 1936 9bbc b76a 0f3d b57b dd3e
000003f0: 87a9 5fbe 3321 30bd 637a dbbe 2209 ad3e

fc1.bias f4 [64]
-0.07318729 0.394997 0.24360114 0.011532075 0.4072071 0.54368937 -0.4203611 0.021202475
0.5147759 -0.05859068 -0.1122272 -0.11150331 -0.457125 -0.4637214 -0.4201765 -0.29858795
-0.38074952 0.2625548 -0.2814052 0.6037075 0.3146136 -0.04500504 0.073324636 -0.01460326
-0.40212786 -0.18267183 0.42338136 0.43932703 0.49481183 -0.0021042163 -0.0924671 -0.2793563
0.106072254 0.11845322 0.30756396 0.23597401 0.1968541 -0.40446588 0.53023005 -0.32133994
-0.44053197 -0.36942357 -0.020670712 -0.12096212 0.09510599 -0.041217107 0.5287222 0.41466546
-0.29282004 -0.028463278 0.6431424 0.28261024 -0.36347526 0.26731345 0.12215434 -0.3810264
0.3731097 0.20759858 -0.05165893 -0.3233112 0.5065718 0.22610228 0.1946574 0.4943709
00000000: 38e3 95bd 0c3d ca3e 9472 793e 07f1 3c3c
00000010: 737d d03e 3a2f 0b3f 9239 d7be d0b0 ad3c
00000020: 5ac8 033f c8fc 6fbd 60d7 e5bd d95b e4bd
00000030: 4a0c eabe e46c edbe 6021 d7be 85e0 98be
00000040: 9af1 c2be 956d 863e 5814 90be 938c 1a3f
00000050: 0915 a13e 3457 38bd 3a2b 963d 8342 6fbc
00000060: b4e3 cdbe 530e 3bbe 71c5 d83e 79ef e03e
00000070: fa57 fd3e e4e6 09bb 645f bdbd ca07 8fbe
00000080: 693c d93d 9a97 f23d 0679 9d3e 2ca3 713e
00000090: 1f94 493e 2716 cfbe 28bd 073f ab86 a4be
000000a0: 688d e1be 1625 bdbe a055 a9bc fdba f7bd
000000b0: eec6 c23d 45d3 28bd 575a 073f 084f d43e
000000c0: 82ec 95be d22b e9bc fba4 243f 4ab2 903e
000000d0: 6e19 babe 4fdd 883e 0e2c fa3d e415 c3be
000000e0: 3c08 bf3e b994 543e 5098 53bd 0c89 a5be
000000f0: b1ae 013f 5b87 673e 4554 473e 2f1e fd3e

fc2.weight f4 [32, 64]
-0.029449675 0.5478702 0.2677802 -0.1065944 -0.032190844 0.13024688 0.07844235 0.22785185
0.041385263 0.055780873 0.028279915 -0.26442584 0.07760592 -0.12366499 -0.07838529 0.23244818
0.37198249 0.2629532 0.03695953 0.364829 0.10302473 -0.14200985 0.017947387 0.041403644
0.010110155 0.17698058 0.12406532 0.14410973 0.18833667 -0.2508918 -0.1430355 -0.07485263
0.13384506 -0.006863538 0.12421819 0.012922111 -0.044482753 0.0060991636 0.2659785 -0.0062941443
-0.0635099 0.10706779 -0.1062278 -0.020485112 0.69169414 -0.0031941237 0.12381983 0.12461826
-0.103107154 0.43925506 0.374925 0.035932858 -0.08218737 -0.050840955 -0.15538187 -0.030343637
0.25736248 0.32719365 0.43817833 -0.12067304 0.13360377 0.09917829 0.14034404 0.16378334
0.06327213 0.6869987 0.24442165 -0.012518443 0.12610857 0.18415222 0.11157885 0.09245862
0.18001476 -0.13504443 -0.06885129 -0.21245965 -0.063973546 0.019246727 -0.058415696 0.37124667
0.57150364 0.4030875 -0.025068387 0.18659367 0.023948843 -0.11846104 -0.15361677 0.205198
-0.12093651 0.18794806 0.15122344 -0.0032019042 -0.022352992 -0.29286158 -0.11883027 -0.05477564
0.24144165 0.07044577 0.01718593 0.018652298 -0.109692715 0.064822175 0.13078721 -0.06786357
-0.25161695 0.120590076 0.099695474 -0.04274182 0.6869875 0.09628094 0.0069709932 0.057586513
0.0756432 0.59071517 0.24699795 0.038207717 -0.0068775713 -0.087268606 -0.21388337 -0.054667696
0.25654274 0.24404322 0.5078381 -0.26306286 0.09341716 0.08132391 0.22787936 0.28119323
0.0120678255 -0.4359851 0.0039628055 0.079508424 0.105289966 -0.027003756 0.036202744 -0.11853346
-0.08944123 0.09747661 -0.049061194 0.38935232 0.11802158 0.034979165 -0.10009448 -0.48550585
-0.5206864 -0.37062937 0.023809597 -0.24156271 -0.14998956 0.11193187 0.031866092 -0.058496255
-0.09452954 -0.13632478 0.063577145 0.10252138 -0.021559577 0.19876191 0.30556735 -0.050692603
-0.12374805 0.15438703 0.076760784 0.036163885 -0.014739388 -0.05338556 0.050541908 0.24884856
0.3173243 -0.054644763 0.113025814 0.0659671 -0.5519445 0.19087291 0.07382873 -0.07905279
-0.0373196 -0.47397187 -0.29036668 0.022084877 -0.10515678 -0.044099968 0.21942133 -0.033885837
-0.21019542 -0.20105995 -0.35148418 0.23156622 0.0882588 0.09993514 -0.18657814 -0.057133477
0.025687156 0.7378525 0.1774347 -0.22154641 0.050745513 0.0051391157 0.029440835 0.106374815
0.22745311 -0.13835512 -0.11485739 -0.46493396 0.11482862 0.11087783 0.081713215 0.3201289
0.47175092 0.35376796 0.061476424 0.26935837 0.025624657 -0.035639446 0.07340694 0.24932872
0.072739884 0.27630287 0.08022064 0.17914495 -0.057121556 -0.11989682 -0.17383629 0.104143426
0.03110974 0.061627492 -0.07800909 0.06347089 0.033782892 0.07407339 0.051173925 -0.23194104
-0.10996852 0.029615194 -0.095605 0.0051373397 0.657026 0.07737217 0.05895752 0.08123404
0.12184329 0.4922818 0.44609222 0.024171272 0.059975848 0.022938428 -0.2706393 0.034450054
0.17838499 0.25462672 0.4977548 -0.19006285 0.039767984 -0.061102916 0.35001948 0.20353864
00000000: 7240 f1bc 3941 0c3f 7d1a 893e 2a4e dabd
00000010: 8cda 03bd 705f 053e 62a6 a03d ff51 693e
00000020: 9883 293d 7c7a 643d 48ab e73c d362 87be
00000030: daef 9e3d 1244 fdbd 7888 a0bd e506 6e3e
00000040: 7d74 be3e cda1 863e e062 173d deca ba3e
00000050: a1fe d23d 086b 11be 6606 933c de96 293d
00000060: 10a5 253c 663a 353e f515 fe3d 8091 133e
00000070: 54db 403e e474 80be e677 12be 564c 99bd
00000080: ae0e 093e 88e7 e0bb 1b66 fe3d 43b7 533c
00000090: 8c33 36bd 7edb c73b 552e 883e 1c3f cebb
000000a0: 7a11 82bd 5c46 db3d f68d d9bd 65d0 a7bc
000000b0: de12 313f 8154 51bb 4095 fd3d dc37 ff3d
000000c0: d829 d3bd 0ae6 e03e 2bf6 bf3e 552e 133d
000000d0: da51 a8bd 9b3e 50bd 6d1c 1fbe 3893 f8bc
000000e0: 04c5 833e ed85 a73e e958 e03e 6d23 f7bd
000000f0: 6dcf 083e fd1d cb3d 59b6 0f3e d2b6 273e
00000100: d294 813d 26df 2f3f ab49 7a3e 281a 4dbc
00000110: 9b22 013e 6692 3c3e 7483 e43d f25a bd3d
00000120: ca55 383e 1649 0abe e801 8dbd 068f 59be
00000130: 9004 83bd 50ab 9d3c 4c45 6fbd 0b14 be3e
00000140: 104e 123f 7c61 ce3e 385c cdbc 6912 3f3e
00000150: 5d30 c43c b49b f2bd b74d 1dbe 6d1f 523e
00000160: 90ad f7bd 7575 403e 51da 1a3e 0ad7 51bb
00000170: 9f1d b7bc f4f1 95be 495d f3bd 6c5c 60bd
00000180: 7b3c 773e df45 903d 82c9 8c3c b4cc 983c
00000190: 93a6 e0bd 7dc1 843d 15ed 053e 0efc 8abd
000001a0: f0d3 80be eef7 f63d 242d cc3d 0c12 2fbd
000001b0: 6ade 2f3f f12e c53d ee6c e43b d6df 6b3d
000001c0: d2ea 9a3d 1c39 173f 08ed 7c3e b27f 1c3d
000001d0: 405d e1bb e2b9 b2bd 3e04 5bbe 3ceb 5fbd
000001e0: 9259 833e 77e6 793e ad01 023f 2db0 86be
000001f0: 7f51 bf3d 268d a63d 3559 693e 8ff8 8f3e
00000200: 21b8 453c 7039 dfbe 6cda 813b 50d5 a23d
00000210: 44a2 d73d fb36 ddbc 5449 143d acc1 f2bd
00000220: f72c b7bd d1a1 c73d 64f4 48bd 3059 c73e
00000230: 4cb5 f13d 5046 0f3d 56fe ccbd 3994 f8be
00000240: b44b 05bf 22c3 bdbe 580c c33c 375c 77be
00000250: dd96 19be 893c e53d 0586 023d c599 6fbd
00000260: b498 c1bd b998 0bbe bc34 823d bbf6 d13d
00000270: b69d b0bc 3e88 4b3e 5373 9c3e 0ca3 4fbd
00000280: 9e6f fdbd a217 1e3e c234 9d3d 9520 143d
00000290: 797d 71bc d1aa 5abd 0805 4f3d 28d2 7e3e
000002a0: 5578 a23e 30d3 5fbd 147a e73d c219 873d
000002b0: 3c4c 0dbf 3074 433e 8433 973d 6ee6 a1bd
000002c0: 70dc 18bd 71ac f2be f1aa 94be 58eb b43c
000002d0: 705c d7bd 2ba2 34bd fcaf 603e e0cb 0abd
000002e0: 783d 57be a9e2 4dbe bcf5 b3be b21f 6d3e
000002f0: 08c1 b43d cbaa cc3d 570e 3fbe cb04 6abd
00000300: df6d d23c e7e3 3c3f 71b1 353e 10dd 62be
00000310: 87da 4f3d 0766 a83b e82d f13c 0adb d93d
00000320: 78e9 683e f7ac 0dbe 5a3a ebbd d30b eebe
00000330: 442b eb3d ea13 e33d 4259 a73d efe7 a33e
00000340: 5689 f13e 1321 b53e b4ce 7b3d 57e9 893e
00000350: cdea d13c abfa 11bd 6156 963d 0750 7f3e
00000360: a6f8 943d 9277 8d3e b84a a43d c671 373e
00000370: 4bf8 69bd 778c f5bd 2402 32be 2649 d53d
00000380: dad9 fe3c 1c6d 7c3d 3bc3 9fbd 07fd 813d
00000390: ee5f 0a3d cab3 973d c09b 513d f481 6dbe
000003a0: 2d37 e1bd 909b f23c 8ecc c3bd 2157 a83b
000003b0: db32 283f 4d75 9e3d 717d 713d 085e a63d
000003c0: fa88 f93d 5c0c fc3e 3366 e43e d502 c63c
000003d0: 3ca9 753d 5fe9 bb3c 3c91 8abe 801b 0d3d
000003e0: 8eaa 363e 6f5e 823e b8d9 fe3e d69f 42be
000003f0: c1e3 223d 0d47 7abd c135 b33e 6f6c 503e

fc2.bias f4 [32]
-0.017576244 0.18153077 0.099981114 -0.015468361 0.09537648 -0.1327011 0.061120123 0.0038373822
0.064802274 -0.07827701 0.065012686 -0.0027464665 -0.055557325 0.028656559 -0.025426053 -0.07976311
0.1357923 -0.05118239 0.078404926 0.07132957 -0.12072651 0.08985857 0.02209422 0.04994924
-0.060382023 -0.016110871 0.11228125 0.21658534 -0.11023526 0.0071311444 0.022529036 -0.050452206
00000000: 0efc 8fbc 34e3 393e e6c2 cc3d 026f 7dbc
00000010: be54 c33d cce2 07be 1859 7a3d 977c 7b3b
00000020: 0eb7 843d b24f a0bd 5f25 853d 10fe 33bb
00000030: 1490 63bd 29c1 ea3c 4c4a d0bc d75a a3bd
00000040: 230d 0b3e a0a4 51bd c392 a03d 3d15 923d
00000050: 763f f7bd c507 b83d f0fe b43c 9397 4c3d
00000060: 2453 77bd f2fa 83bc b6f3 e53d 8cc8 5d3e
00000070: 06c3 e1bd 60ac e93b d08e b83c f9a6 4ebd

fc3.weight f4 [1, 32]
-0.34853902 -0.37544608 0.3405029 -0.2982618 0.08342191 0.41478607 0.05895783 0.35595235
-0.14283845 -0.14784163 -0.5586401 0.021056747 0.41328898 -0.4207194 0.077042095 0.33938533
-0.41926765 0.009631335 0.32023826 -0.33932054 -0.6172838 0.020005466 0.12051811 0.28759265
-0.10003487 -0.43086252 0.087681144 -0.37968943 0.03005142 0.12125808 0.0016228543 0.11197072
00000000: b573 b2be 783a c0be 6556 ae3e c5b5 98be
00000010: 1bd9 aa3d d75e d43e c47d 713d 633f b63e
00000020: 3e44 12be cc63 17be 0a03 0fbf 337f ac3c
00000030: 9d9a d33e 8868 d7be 3fc8 9d3d eac3 ad3e
00000040: 40aa d6be bfcc 1d3c 45f6 a33e 6cbb adbe
00000050: 5006 1ebf 81e2 a33c 33d2 f63d 583f 933e
00000060: 15df ccbd 039a dcbe 2c92 b33d a766 c2be
00000070: 652e f63c 2856 f83d f4b5 d43a e850 e53d
