anomaly_model.pth (torch, 12356 bytes, 5 tensors)

fc1.weight f4 [64, 4]
0.0030693477 0.5088356 0.02673019 -0.375107 0.4176495 0.42320055 -0.20885448 -0.32414615
-0.28569514 -0.0036312938 0.4405443 -0.28655005 0.39336464 0.29060823 -0.088395156 0.22847088
-0.7760002 -0.19444332 -0.18621106 0.28363693 -0.95165485 0.032423913 0.20938131 0.246282
-0.13950282 -0.120860934 -0.29338557 -0.41038525 0.20368417 -0.33984455 0.7005767 -0.14566214
-0.1526643 0.040507555 -0.08955598 -0.2195108 0.35429227 0.07021471 -0.4509273 0.08125534
0.14188558 -0.44537115 -0.46019518 -0.43045694 -0.1899085 -0.21546465 -0.38742512 0.34097278
-0.7636755 0.17521544 -0.13421309 0.16880411 -0.19939807 -0.15713269 -0.18158269 0.38885015
-0.39659593 -0.46348044 -0.45201826 0.40743616 0.3194601 -0.29361865 0.5363855 0.4375097
-0.26176882 -0.36964366 -0.07021974 -0.25774103 0.12137807 -0.20859513 0.043022983 -0.06751767
0.60261804 -0.39497697 -0.046919897 0.08790424 -0.2819628 -0.4600833 -0.4775722 -0.4793663
-0.016428268 0.37147763 0.38438913 -0.11997714 -0.18613708 0.5414377 -0.0737111 0.36530393
0.6841744 -0.38313997 -0.0070778024 -0.22386344 -0.3784511 0.313299 -0.37730312 -0.27676117
-0.15443312 -0.27497023 0.59270644 -0.07174163 -0.22255982 -0.21370912 -0.09309993 0.44599655
0.29737464 0.050445087 -0.0185783 0.4463228 0.051800773 -0.15387692 0.48807666 0.21024199
0.22103316 0.27751988 -0.27867138 0.63488084 -0.33025384 -0.461861 0.11459863 -0.031273723
0.07371622 -0.41316396 0.02294749 0.010016322 -0.14304657 -0.125691 0.534326 0.470839
0.11419025 0.47850567 0.63545084 -0.22694488 -0.8543561 -0.11161675 0.005752749 0.3676599
0.29416126 -0.28247303 -0.14043975 -0.122382045 0.65413123 -0.063946165 -0.04501955 0.13507897
0.61975014 0.029207818 -0.37312633 0.093860365 -0.12859434 0.05080925 0.5007148 0.38147023
0.30133605 -0.50014895 -0.4838644 -0.102638505 0.19381925 -0.46274573 -0.0044391695 0.034162555
-0.49119622 -0.42223153 0.147162 0.29258388 0.33459654 0.01983488 -0.3904268 0.36683774
-0.14584823 -0.40699065 -0.06270884 0.4106141 0.33315653 0.28266096 0.50777924 0.35210106
0.46315002 0.45539948 0.4369071 0.33316052 0.77786463 -0.14512148 -0.19567373 -0.059931714
0.5305792 -0.29743823 -0.16649549 -0.48689324 -0.06256962 -0.29515463 -0.47515285 -0.16901326
0.19330335 -0.3153757 -0.20745319 0.14051878 0.47610155 0.39516014 0.5011316 0.14861237
-0.1604523 0.3463778 0.12646258 -0.2813074 -0.16084659 0.54735255 -0.15444465 0.31186584
0.36762545 -0.329182 0.00686543 0.44045004 -0.17035547 -0.3374067 -0.4318851 0.48058045
-0.100535825 0.6573005 0.06348727 -0.31211486 0.14491639 0.6529053 -0.49844766 -0.42188668
0.07942387 0.3017776 -0.093419805 -0.46433988 -0.89658403 0.26728803 0.29342428 0.17455943
0.2964816 0.5089525 -0.47620204 0.17572895 -0.33988383 0.53091353 0.51415557 0.03673187
0.225548 -0.43076247 0.42950308 0.21662495 0.11391024 -0.5955711 0.43563277 0.39767644
-0.023802139 -0.49363005 0.384515 0.3607905 0.15384467 0.105815284 0.49249974 0.104615234
00000000: 1c27 493b 0d43 023f 45f9 da3c 060e c0be
00000010: 28d6 d53e bead d83e f3dd 55be 7cf6 a5be
00000020: a246 92be 00fb 6dbb 068f e13e b0b6 92be
00000030: 1767 c93e 9aca 943e 8508 b5bd 45f4 693e
00000040: f3a7 46bf 261c 47be 1dae 3ebe dc38 913e
00000050: a79f 73bf f0ce 043d 0e68 563e 5931 7c3e
00000060: d4d9 0ebe f085 f7bd a236 96be 041e d2be
00000070: 9592 503e 1b00 aebe ff58 333f 7528 15be
00000080: 0854 1cbe 40eb 253d 2069 b7bd 70c7 60be
00000090: cc65 b53e bbcc 8f3d f1df e6be 3369 a63d
000000a0: 744a 113e b007 e4be b49e ebbe da64 dcbe
000000b0: 6077 42be c4a2 5cbe 965c c6be fc93 ae3e
000000c0: 3d80 43bf ad6b 333e 286f 09be fcda 2c3e
000000d0: 022f 4cbe 64e7 20be d0f0 39be 5e17 c73e
000000e0: 9f0e cbbe 4f4d edbe f06e e7be 799b d03e
000000f0: 4690 a33e 2f55 96be 8f50 093f 4501 e03e
00000100: 9006 86be ef41 bdbe 5ecf 8fbd a2f6 83be
00000110: 1195 f83d f699 55be de38 303d b446 8abd
00000120: 2d45 1a3f 6c3a cabe 142f 40bd 2307 b43d
00000130: 6e5d 90be 0a90 ebbe 5884 f4be 806f f5be
00000140: 9394 86bc 5132 be3e a7ce c43e 93b6 f5bd
00000150: b89a 3ebe a99b 0a3f d8f5 96bd 1e09 bb3e
00000160: 0e26 2f3f ec2a c4be e9ec e7bb 753c 65be
00000170: 58c4 c1be ba68 a03e e02d c1be a4b3 8dbe
00000180: b723 1ebe e6c8 8cbe 9cbb 173f 47ed 92bd
00000190: b9e6 63be 90d6 5abe 2dab bebd a959 e43e
000001a0: 7d41 983e 829f 4e3d 8531 98bc 6c84 e43e
000001b0: 0c2d 543d e991 1dbe 2fe5 f93e ad49 573e
000001c0: 8456 623e 1617 8e3e 04ae 8ebe 8d87 223f
000001d0: 0817 a9be 0c79 ecbe b0b2 ea3d e018 00bd
000001e0: 88f8 963d 3a8a d3be 60fc bb3c 801b 243c
000001f0: cd7a 12be 24b5 00be 97c9 083f cf11 f13e
00000200: 94dc e93d b2fe f43e e8ac 223f 3d64 68be
00000210: 15b7 5abf 5397 e4bd 8e81 bc3b eb3d bc3e
00000220: 4e9c 963e 4ea0 90be 70cf 0fbe 70a3 fabd
00000230: 2575 273f 35f6 82bd 6b66 38bd 2452 0a3e
00000240: f2a7 1e3f 3c45 ef3c 6a0a bfbe dd39 c03d
00000250: 3cae 03be 5c1d 503d d82e 003f 1150 c33e
00000260: b848 9a3e c309 00bf 13bd f7be 2334 d2bd
00000270: 8e78 463e 02ed ecbe 7476 91bb 09ee 0b3d
00000280: 127e fbbe bb2e d8be a3b1 163e 8ecd 953e
00000290: 3d50 ab3e c27c a23c 06e6 c7be 28d2 bb3e
000002a0: 3d59 15be 1461 d0be 7e6d 80bd 033c d23e
000002b0: 7e93 aa3e f0b8 903e d2fd 013f 9746 b43e
000002c0: 0022 ed3e 1f2a e93e 4ab2 df3e 0494 aa3e
000002d0: 2322 473f ba9a 14be b25e 48be f57a 75bd
000002e0: 0ad4 073f d349 98be cb7d 2abe 124a f9be
000002f0: 8024 80bd 821e 97be 3c47 f3be d011 2dbe
00000300: 50f1 453e ec78 a1be 9c6e 54be 28e4 0f3e
00000310: 95c3 f33e 6e52 ca3e 294a 003f d72d 183e
00000320: 9c4d 24be 6e58 b13e 687f 013e 8607 90be
00000330: f8b4 24be 4c1f 0c3f bd26 1ebe e1ac 9f3e
00000340: 6739 bc3e 8b8a a8be 67f7 e03b ab82 e13e
00000350: aa71 2ebe 92c0 acbe 0b20 ddbe a40e f63e
00000360: bae5 cdbd d844 283f 9d05 823d 85cd 9fbe
00000370: f664 143e cd24 273f 8834 ffbe 8801 d8be
00000380: fba8 a23d 9882 9a3e e252 bfbd f5bd edbe
00000390: 8886 65bf fad9 883e b53b 963e b5bf 323e
000003a0: 70cc 973e b64a 023f c1d0 f3be 4af2 333e
000003b0: 4105 aebe f3e9 073f b39f 033f 2874 163d
000003c0: 0ef6 663e e68c dcbe d4e7 db3e eed2 5d3e
000003d0: c649 e93d 5977 18bf 420b df3e 3f9c cb3e
000003e0: b4fc c2bc 14bd fcbe 26df c43e 88b9 b83e
000003f0: 7589 1d3e afb5 d83d ed28 fc3e 8340 d63d

fc1.bias f4 [64]
-0.008348916 0.11669843 -0.37502706 0.22017963 0.5104366 0.140064 -0.2251339 -0.29969558
-0.27338314 0.23385006 -0.41921258 -0.38546234 0.31017613 0.5813464 0.56635 -0.46590403
0.6992998 0.3110403 0.048398234 -0.16433048 -0.016546655 0.06012635 0.11618747 -0.3945626
0.06748808 -0.32871178 0.016005337 -0.32017455 -0.26913375 -0.2688139 -0.18597108 -0.2879891
-0.20823966 0.27704448 -0.26549053 -0.33540183 0.016278569 -0.22975697 0.46632415 0.3601039
0.5893726 0.61315954 -0.3334678 -0.37404227 0.12650605 -0.12329497 0.31643212 -0.069794714
-0.3521034 0.40277043 -0.49302775 0.38253078 -0.11839505 0.14963488 -0.14224917 0.059542947
0.009373654 -0.090069346 -0.27830324 0.39308488 -0.27767074 -0.29068968 0.45412236 -0.008725621
00000000: e4c9 08bc 96ff ee3d 8c03 c0be c576 613e
00000010: f9ab 023f f06c 0f3e 8089 66be b371 99be
00000020: e0f8 8bbe 6476 6f3e 08a3 d6be 525b c5be
00000030: 68cf 9e3e 1ed3 143f 50fc 103f f98a eebe
00000040: 5005 333f ad40 9f3e 3a3d 463d 4046 28be
00000050: da8c 87bc 0c47 763d b2f3 ed3d 1c04 cabe
00000060: 3137 8a3d e94c a8be a01d 833c ebed a3be
00000070: e6cb 89be faa1 89be 346f 3ebe 4f73 93be
00000080: c73c 55be c6d8 8d3e 60ee 87be cab9 abbe
00000090: a25a 853c 6945 6bbe 0ac2 ee3e 8a5f b83e
000000a0: 1fe1 163f 06f8 1c3f 4bbc aabe 7882 bfbe
000000b0: cd8a 013e 1382 fcbd 6403 a23e 88f0 8ebd
000000c0: e646 b4be ed37 ce3e 226e fcbe 13db c33e
000000d0: 1b79 f2bd e339 193e c4a9 11be 4ee3 733d
000000e0: f493 193c 4776 b8bd c37d 8ebe 6c42 c93e
000000f0: dc2a 8ebe 47d5 94be ba82 e83e e8f5 0ebc

fc2.weight f4 [32, 64]
0.09349279 0.026160317 0.10882585 -0.051977664 -0.00979485 0.017660158 0.045746967 0.05294188
0.06443097 0.046560794 0.10597919 0.05416432 0.005664774 0.006267496 0.00832483 -0.002615751
-0.1275329 0.025456104 0.008904074 0.123346195 -0.009618679 -0.06328978 0.08246011 0.08681561
-0.08586887 0.07891107 0.006511009 0.04184295 -0.14795996 0.0376928 -0.11873014 0.029805303
0.09024586 0.023256011 -0.033379078 0.001022048 -0.07292941 0.087190636 -0.11771112 0.09302643
-0.0128599405 0.057693895 -0.03247565 -0.0365881 -0.066039465 -0.10815317 -0.059056908 0.062522456
0.050712794 -0.0055893664 -0.07115491 -0.07713572 0.061135553 -0.1397776 0.024800604 -0.053819273
-0.031821072 0.09733624 -0.06843034 -0.11611783 0.0835059 0.10771143 -0.083230555 -0.044603426
0.035222817 0.054296155 -0.12298314 0.152269 0.30541262 0.21355051 -0.1231696 -0.4419148
0.06605978 0.14962311 -0.10809176 0.10277769 0.20640087 0.12268573 0.3379025 -0.26448488
0.29823834 0.10100182 0.101934895 -0.049295932 -0.16508606 -0.04436405 0.19223984 0.1156577
-0.13196471 0.06510988 -0.05644799 -0.2640532 -0.019139698 0.11837834 -0.016617596 -0.13183527
-0.19221826 0.3350901 -0.11917737 0.354727 -0.012499333 -0.17069612 0.33338353 0.11731458
0.22773072 0.15523066 0.020464854 -0.21209222 -0.10271025 0.5105235 0.08072678 0.1161706
0.06403762 0.05637335 0.08133465 0.13539158 -0.044489577 0.17157452 -0.1523993 -0.14545727
0.03528793 0.53890574 -0.20711857 -0.020966263 -0.16572121 -0.25786006 0.18239903 -0.05151347
0.27735105 0.22836365 0.048573375 0.16667096 -0.15908745 -0.3488696 -0.049344257 0.005937171
0.087302774 0.069999255 -0.115562916 -0.092863634 0.16861254 -0.120671906 -0.0023367428 -0.2034069
-0.33274522 -0.09012832 -0.3247139 0.051706 0.010985414 0.21093334 -0.35763043 -0.07826984
-0.024724768 -0.08684258 0.09280654 0.06994086 0.1447783 0.047310606 -0.07859102 0.063604854
0.109941036 -0.27683392 0.09756027 -0.2296839 0.006821662 -0.059608474 -0.09853204 -0.37865233
-0.19740328 0.14232476 0.076901324 -0.048293617 0.09514239 -0.2170633 0.0513016 -0.0091392845
0.11910145 0.03548165 -0.055297032 0.16036119 -0.2607284 0.055297054 0.12553194 0.33580825
0.12696184 -0.5020414 0.17799965 -0.025560219 -0.13313325 -0.16899775 -0.26746565 -0.060325667
0.045261163 0.06275327 0.038735196 0.10531437 0.059519432 0.015696391 -0.10189746 0.009219006
0.07245968 -0.029306386 0.039617524 -0.07241997 -0.03675087 0.091601186 -0.07044535 -0.10437739
-0.06651676 -0.11694621 0.063524604 0.0033437759 -0.11830282 -0.12567881 -0.043287884 -0.11656281
0.018392222 0.07910299 0.027173324 0.009558797 0.0064547043 0.10453689 -0.060154706 0.04098463
0.07140058 0.1179941 0.0423657 0.08821112 0.0940493 -0.021080444 -0.015125168 0.07136087
-0.12368362 0.012790182 0.06140834 -0.09853934 -0.09305151 0.035782866 -0.003336955 0.1179034
-0.034699947 0.09675173 -0.03549765 -0.10326146 -0.011937778 0.08929058 -0.09471813 -0.10561262
-0.039404076 -0.040924087 0.03782086 -0.106542796 -0.13010283 -0.11071545 -0.053141717 -0.039056662
00000000: 2679 bf3d 294e d63c 16e0 de3d 88e6 54bd
00000010: 947a 20bc 09ac 903c 2c61 3b3d 96d9 583d
00000020: 62f4 833d 88b6 3e3d 9e0b d93d 68db 5d3d
00000030: 929f b93b 915f cd3b de64 083c 056d 2bbb
00000040: fc97 02be 5289 d03c 65e2 113c ee9c fc3d
00000050: aa97 1dbc 129e 81bd d9e0 a83d 62cc b13d
00000060: 05dc afbd 219c a13d 4d5a d53b 8363 2b3d
00000070: d182 17be c463 1a3d ca28 f3bd 402a f43c
00000080: d2d2 b83d 6483 be3c 80b8 08bd 3df6 853a
00000090: 045c 95bd 0191 b23d 8712 f1bd a484 be3d
000000a0: 80b2 52bc 6f50 6c3d 3005 05bd 67dd 15bd
000000b0: b33f 87bd 697f ddbd a8e5 71bd c60b 803d
000000c0: 38b8 4f3d 0127 b7bb aab9 91bd 55f9 9dbd
000000d0: 4669 7a3d dc21 0fbe a32a cb3c 9971 5cbd
000000e0: d056 02bd 3958 c73d 3525 8cbd 2fcf edbd
000000f0: 2405 ab3d cf97 dc3d c874 aabd 15b2 36bd
00000100: cd45 103d a565 5e3d 96de fbbd 68ec 1b3e
00000110: 0b5f 9c3e fcac 5a3e 5840 fcbd a842 e2be
00000120: 5a4a 873d cd36 193e 365f ddbd 1c7d d23d
00000130: c05a 533e a842 fb3d 8e01 ad3e 906a 87be
00000140: b2b2 983e 0bda ce3d 3ec3 d03d 88ea 49bd
00000150: 520c 29be 14b7 35bd 85da 443e f2dd ec3d
00000160: c221 07be 5458 853d 0236 67bd fb31 87be
00000170: dbca 9cbc 5870 f23d a021 88bc d3ff 06be
00000180: ddd4 44be ee90 ab3e 4413 f4bd c79e b53e
00000190: 01ca 4cbc f7ca 2ebe 3fb1 aa3e a042 f03d
000001a0: 3e32 693e c9f4 1e3e e9a5 a73c b42e 59be
000001b0: c059 d2bd abb1 023f 1554 a53d daea ed3d
000001c0: 2826 833d bee7 663d c892 a63d 17a4 0a3e
000001d0: b43a 36bd 3bb1 2f3e 900e 1cbe c0f2 14be
000001e0: 148a 103d baf5 093f e416 54be 71c1 abbc
000001f0: d2b2 29be 3c06 84be d0c6 3a3e caff 52bd
00000200: f500 8e3e 29d8 693e e0f4 463d cbab 2a3e
00000210: d2e7 22be 099f b2be 341d 4abd 9a8c c23b
00000220: cccb b23d c55b 8f3d 40ac ecbd 4a2f bebd
00000230: c4a8 2c3e d522 f7bd 0a24 19bb e649 50be
00000240: 955d aabe 3295 b8bd e640 a6be acc9 533d
00000250: 2afc 333c e9fe 573e 561b b7be f04b a0bd
00000260: 998b cabc 86da b1bd 5b11 be3d 273d 8f3d
00000270: c340 143e c4c8 413d 54f4 a0bd 4343 823d
00000280: c428 e13d 2dbd 8dbe aecd c73d 4232 6bbe
00000290: 4088 df3b 0428 74bd 2bcb c9bd b8de c1be
000002a0: 1624 4abe 95bd 113e 717e 9d3d 87cf 45bd
000002b0: 03da c23d d745 5ebe a021 523d f0bc 15bc
000002c0: 76eb f33d 3555 113d 247f 62bd b935 243e
000002d0: 317e 85be 2a7f 623d 728b 003e 0fef ab3e
000002e0: 4902 023e c985 00bf 8a45 363e aa63 d1bc
000002f0: 1554 08be bf0d 2dbe 42f1 88be 0c18 77bd
00000300: c563 393d c984 803d cca8 1e3d 0faf d73d
00000310: a6ca 733d b895 803c 9eaf d0bd 500b 173c
00000320: be65 943d f213 f0bc fc45 223d ec50 94bd
00000330: 1588 16bd 6799 bb3d a745 90bd d0c3 d5bd
00000340: f039 88bd 7f81 efbd 3019 823d 4023 5b3b
00000350: c048 f2bd f2b1 00be a34e 31bd 7cb8 eebd
00000360: 49ab 963c c000 a23d 979a de3c 809c 1c3c
00000370: fc81 d33b 7017 d63d c864 76bd 80df 273d
00000380: 783a 923d e4a6 f13d a887 2d3d 08a8 b43d
00000390: eb9c c03d e5b0 acbc 8dcf 77bc a625 923d
000003a0: d64d fdbd e98d 513c 5087 7b3d fece c9bd
000003b0: ca91 bebd 0e91 123d d1b0 5abb 5677 f13d
000003c0: 8821 0ebd c525 c63d fc65 11bd bf7a d3bd
000003d0: ac96 43bc fbdd b63d 94fb c1bd 6e4b d8bd
000003e0: 2b66 21bd 04a0 27bd 0cea 1a3d 1c33 dabd
000003f0: ad39 05be c8be e2bd 21ab 59bd e1f9 1fbd

fc2.bias f4 [32]
0.082095005 0.2354997 0.009742406 -0.09008652 -0.00031214437 0.091066755 0.06303927 -0.017154519
0.029795622 -0.036340423 0.07060104 -0.08399917 0.15701783 0.20349774 0.033900864 -0.098665446
-0.057316374 0.13134718 0.17466848 0.22547439 0.00038490805 -0.020849925 0.12863302 -0.045066893
-0.048520673 0.19999157 -0.009485535 0.06277507 0.0014567123 0.05245778 -0.10035352 -0.13953651
00000000: 6d21 a83d d526 713e 9d9e 1f3c 487f b8bd
00000010: 4fa7 a3b9 3581 ba3d bc1a 813d a287 8cbc
00000020: f315 f43c b2d9 14bd 4797 903d c207 acbd
00000030: 48c9 203e b661 503e a2db 0a3d 1c11 cabd
00000040: 93c4 6abd e07f 063e 4bdc 323e c2e2 663e
00000050: 7ccd c939 76cd aabc 60b8 033e 1098 38bd
00000060: 9dbd 46bd 97ca 4c3e 3869 1bbc 3790 803d
00000070: 27ef be3a f8dd 563d 2586 cdbd a9e2 0ebe

fc3.weight f4 [1, 32]
0.11281101 -0.53264266 0.46569622 0.156854 0.15099896 0.11652818 0.024988027 0.052559983
0.03977287 0.41507733 0.34115452 0.41510174 -0.43189013 -0.44195578 0.42893592 0.080687866
0.0740389 -0.4779314 -0.48477882 -0.35096154 0.36433077 0.46874377 -0.3558754 -0.047054596
0.10382388 -0.47400716 -0.066139154 0.37131667 0.015265779 -0.56721187 -0.06798085 0.020503804
00000000: 7509 e73d 455b 08bf bc6f ee3e 569e 203e
00000010: 799f 1a3e 54a6 ee3d b1b3 cc3c 2349 573d
00000020: e0e8 223d 0485 d43e ceab ae3e 3788 d43e
00000030: b420 ddbe 0748 e2be 7d9d db3e ae3f a53d
00000040: b5a1 973d 6db3 f4be ee34 f8be 3bb1 b3be
00000050: 9089 ba3e 2fff ef3e 4d35 b6be 52bc 40bd
00000060: 9da1 d43d 11b1 f2be f773 87bd 381d be3e
00000070: 511d 7a3c cc34 11bf 8b39 8bbd 98f7 a73c
