anomaly_model.pth (torch, 12356 bytes, 5 tensors)

fc1.weight f4 [64, 4]
000000 db f4 87 bf 51 ec 84 3b f1 7b 48 bd 39 2b 7e 3e
       -1.0621599 0.0040564914 -0.048946325 0.24821176
000010 00 ac 3c 3e 76 e1 ec be c0 63 77 3d d4 d0 c2 be
       0.18424988 -0.46265763 0.060397863 -0.38049948
000020 94 be a4 3f 30 bb 84 be a1 9b 92 be 0f 3b 36 3d
       1.287066 -0.25924063 -0.2863436 0.044489916
000030 8a c8 5c bf df 33 8c ba 9d e5 3e be fd e3 49 3d
       -0.862435 -0.0010696611 -0.18642278 0.049289692
000040 52 e1 5e 3f 2c 8b 9c be fd 4c 9e be 6b 58 05 b7
       0.8706256 -0.3057493 -0.30918112 -7.948004e-06
000050 4c a3 7a 3f 22 3a de be 31 eb f6 be 96 5b b6 3d
       0.9790542 -0.43403727 -0.48226312 0.089041874
000060 00 1d 68 3f 08 28 9c 3e b2 03 07 3f 78 63 62 3e
       0.9066925 0.3049929 0.52740014 0.22108257
000070 e6 60 36 bf 61 84 f0 bd 95 55 83 3e 2e 6d cf bb
       -0.71241605 -0.11743999 0.2565123 -0.006330154
000080 bf 5c d5 be 21 e7 23 3e 5f d9 78 3d b8 9e 32 bc
       -0.41672322 0.16006137 0.060754176 -0.010902099
000090 41 55 e3 be fd 14 2a be f2 c0 18 3e 56 a1 93 bc
       -0.4440098 -0.16609569 0.14917353 -0.018021267
0000a0 7f c6 8b bf 6d 05 6b 3e 88 37 eb 3e 84 de 6f 3e
       -1.0919951 0.22951289 0.45940804 0.23424727
0000b0 e7 18 2e 3f 3f a4 f9 3e 43 e0 fe bc fb ba 77 3e
       0.6800675 0.48758122 -0.031112796 0.24192421
0000c0 7b 52 04 bf d0 11 c4 bc b5 36 4c bd dd d0 11 3e
       -0.51688355 -0.023934275 -0.04985686 0.14239831
0000d0 cf 6a da 3d 84 6b 60 3e 7a 4e ae be fd fc df bd
       0.10664903 0.21916014 -0.34044248 -0.109369256
0000e0 49 7c 90 be bf 4c f4 bd 7d ef b6 bd 52 5f 3a 3e
       -0.28219822 -0.11928701 -0.089323975 0.18200424
0000f0 ed 25 57 bf f3 16 80 be 20 75 03 be 1e da 95 3e
       -0.84042245 -0.2501751 -0.12837648 0.29267973
000100 50 76 48 be 80 85 89 3f 29 19 a0 bf 16 18 8c bd
       -0.19576383 1.0743866 -1.2507678 -0.068405315
000110 6c 85 70 bf 76 27 c5 bd 16 1d 2f be 98 6b 76 3e
       -0.93953586 -0.09626667 -0.17100939 0.24064481
000120 89 9b 41 3e 80 33 65 3f 84 19 58 bf b7 26 83 bd
       0.18906988 0.8953171 -0.84413934 -0.06403869
000130 c5 91 ce 3e ce f7 7e 3f 40 3a 73 bf e0 7b 9b bc
       0.40345588 0.9959687 -0.9501076 -0.018979967
000140 db 25 e9 be 3b 97 72 be 59 78 a7 be fc 4a 79 3e
       -0.45536694 -0.23690502 -0.32709005 0.2434501
000150 31 17 d7 39 8d 1f 22 bf 51 2a da be d9 b6 09 3e
       0.00041025275 -0.6332939 -0.4261041 0.13448657
000160 04 01 7a be 1c b3 36 3e c6 0b f2 be c8 cd 06 be
       -0.2441445 0.17841762 -0.47274607 -0.13164437
000170 9e 8c f3 3e f9 4d c8 be 50 33 fc 3d 84 18 d1 3e
       0.4756822 -0.39121988 0.123144746 0.40839016
000180 a1 11 d2 bf 64 ad 12 3d 36 f5 1e 3f 30 3b 7b bd
       -1.641163 0.03580989 0.6209291 -0.061335742
000190 7e fd 58 3f b6 e8 13 3f 36 fd 0c 3f cd 87 c5 3c
       0.847618 0.57776964 0.5507387 0.024112606
0001a0 9a af 9b bf 30 7d c0 3d db e6 61 3e e2 52 a9 3e
       -1.2162964 0.093988776 0.2206072 0.33071047
0001b0 5e 6d 60 3e e9 31 ac be be ef 6d 3f cf 87 5b bd
       0.2191672 -0.33631828 0.9294394 -0.053596314
0001c0 c4 07 86 be 24 26 ec be f4 86 45 be 0c 6a b7 be
       -0.261778 -0.4612285 -0.19289762 -0.35823095
0001d0 4d d3 f0 3e f3 1c ea 3e 35 8a 70 3e 6e f3 e8 bc
       0.4703621 0.45725212 0.23490222 -0.028436389
0001e0 90 05 10 3d 14 32 1b 3e cc d9 2e 3f 3a 7d 39 be
       0.035161555 0.15155822 0.6830108 -0.18114176
0001f0 dc cc 35 bf b1 0e 55 be aa fb 44 be 12 fd 90 3e
       -0.71015716 -0.20806386 -0.19236627 0.28318077
000200 e0 d9 4d 3e 08 63 44 be 80 a8 7c 3c 90 21 79 be
       0.20102644 -0.19178402 0.015421033 -0.2432921
000210 64 01 18 3f bc cd 66 be 2b aa 32 be 3d 7f 9a 3e
       0.5937712 -0.22539419 -0.17447726 0.301752
000220 e4 ff 98 3f da d8 9c 3e 61 84 03 3e 41 4c 9f 3d
       1.1953092 0.30634195 0.12843467 0.07778216
000230 7c df 1e bf ae 98 86 3d 66 08 7f 3d 7f 5d be bd
       -0.6205976 0.0657209 0.06226387 -0.09295177
000240 13 ce a1 bf e2 07 09 3f ca 8b 17 3f b0 c4 d8 bd
       -1.2641014 0.53527653 0.59197676 -0.1058439
000250 e0 a7 2f bf 0f e0 13 be a3 ce 85 3d fe 65 90 3e
       -0.6861553 -0.1444094 0.065335535 0.28202814
000260 42 7b 96 3f 1a af cd bd 10 80 00 be 52 59 ab 3c
       1.1756365 -0.100431636 -0.12548852 0.020916615
000270 ce 99 1e 3f a1 fa 1e bf c5 7a 11 be 67 47 13 3e
       0.6195344 -0.6210118 -0.14206989 0.14382707
000280 2e 78 90 3f ac 62 95 be 8b 6f b9 be b7 2f 04 3e
       1.1286676 -0.29176843 -0.36217913 0.12908827
000290 19 a5 47 bd 6c 49 a7 bf 55 6b 83 3f 28 4b e3 bd
       -0.048741434 -1.3069282 1.026713 -0.11098319
0002a0 2e ac 8c 3f 93 e9 af 3e b7 f2 f1 bd 62 51 b0 3e
       1.0990045 0.3435789 -0.11813872 0.3443709
0002b0 38 c4 7f 3f 91 5d 91 3e d8 f6 df 3e 29 ac 33 3e
       0.9990878 0.28391698 0.43743014 0.17546143
0002c0 5e d0 97 3f bf 1c 03 3f e3 57 d5 3e 32 ec 00 3e
       1.1860464 0.5121574 0.41668615 0.12590101
0002d0 38 06 92 3f 66 74 cd 3d 05 63 f8 3e 05 26 96 3e
       1.1408148 0.10031967 0.48513046 0.29325882
0002e0 5e 4c 07 c0 b0 44 e4 bc ca 39 50 3c 29 ce a1 3b
       -2.114036 -0.027864784 0.0127090905 0.0049379063
0002f0 68 bf 08 bf 2d 39 c6 bc 16 b3 f7 bd 0e 8f 96 3b
       -0.5341706 -0.024197185 -0.12094705 0.00459469
000300 68 d0 d5 be 44 26 09 be 9a d1 8e 3e 2c 36 32 be
       -0.41760564 -0.13393503 0.27894288 -0.17403477
000310 20 8c ff bd b0 85 6e be bc 01 7b 3e 46 ab ce be
       -0.124778986 -0.23293185 0.2451238 -0.40365046
000320 27 86 fd be 8f 3e 39 3e ae b2 03 bf 01 08 09 3e
       -0.49516413 0.1809027 -0.5144452 0.1338196
000330 6a 68 b0 bd 9e 96 83 bf 48 73 8c 3f 21 53 0e 3d
       -0.086136654 -1.028034 1.0972681 0.034747247
000340 85 8b d4 be 3d ed d8 be ed b2 94 bd 6c bb e6 3d
       -0.41512695 -0.42368498 -0.0726069 0.11266217
000350 63 52 57 bf 56 89 6f 3a 93 5c a6 3c 8d 1d 7c 3e
       -0.8411009 0.0009137591 0.020307815 0.24620648
000360 6e 36 84 3f 73 ba 6c be 76 29 79 be 14 a7 22 bd
       1.0329111 -0.23118 -0.24332222 -0.03971012
000370 8b bf d8 be 32 f7 ff be 8d b4 ab be e8 e1 40 3e
       -0.42333636 -0.49993283 -0.33536187 0.18836176
000380 81 80 41 bf bc 10 4f be 4f 43 19 3d a1 c9 25 3d
       -0.75586706 -0.20221227 0.037417706 0.04047549
000390 49 31 b2 be c5 16 56 3f dd 2d 19 bf a2 8a 24 3e
       -0.34803227 0.83628494 -0.59835607 0.16068509
0003a0 e9 51 73 3f b9 c5 88 3d f1 4e 8a 3e 22 25 f5 3e
       0.9504686 0.066783376 0.27013353 0.47879893
0003b0 c7 e4 fb be a2 3b af 3e 32 e2 9b 3d ac 90 40 3e
       -0.4919798 0.34225184 0.07611503 0.18805188
0003c0 61 4b 4f 3f b6 01 3d 3e 50 f7 26 bd 09 b5 d2 3d
       0.80974394 0.18457684 -0.0407632 0.10288436
0003d0 5f 47 32 bf 58 5a 15 3f 70 27 2c 3f 2a 38 15 bd
       -0.69640154 0.5834098 0.67247677 -0.036430515
0003e0 5e 35 5c bf be 7a c4 3e 0c ba be 3e ca 20 88 be
       -0.8601893 0.38374895 0.37251318 -0.26587516
0003f0 06 2e 1d bf f3 be af 3e fd 6c ac 3e 80 88 93 be
       -0.6139835 0.3432537 0.336769 -0.2881508

fc1.bias f4 [64]
000000 63 68 7f 3f ce 74 d9 be 19 30 55 be 3b 1f 7a 3f
       0.99768656 -0.42471927 -0.20819129 0.97703904
000010 34 d2 22 3d fb b9 53 bd d4 04 03 bf 5b e0 31 3f
       0.039751247 -0.051691037 -0.5117924 0.69482964
000020 5c 43 bc bd 56 92 be 3e 1c c1 48 3f a3 cb e6 be
       -0.09192535 0.3722102 0.7841966 -0.45077237
000030 31 4e fa 3e f9 fe af be 7b 3c ad be e7 1a 8a 3f
       0.4888778 -0.34374216 -0.33835205 1.078946
000040 a6 b6 96 3e f1 22 86 3f 6f 4f 33 be 2b 40 85 be
       0.29436225 1.0479413 -0.1751077 -0.2602552
000050 b1 d7 90 be a1 27 9b 3d 7c dc 46 be 2a 3b 04 bf
       -0.2828956 0.07575918 -0.19420046 -0.5165278
000060 ab 0c 17 be 31 12 8f be 15 59 7c 3f 06 a6 09 bf
       -0.14750926 -0.27943566 0.9857343 -0.53768957
000070 60 f5 1d be 26 43 ac be 76 7f a1 be 90 91 7c 3f
       -0.15425634 -0.3364498 -0.31542557 0.9865961
000080 f2 bc 8c be 5b d9 ef be 58 ba ad be db 1e 3e 3f
       -0.27487904 -0.46845517 -0.33931231 0.7426583
000090 68 8c 65 3f 1f 56 12 3f d3 5c 8f be a7 0b 1a 3d
       0.8966737 0.5716266 -0.28000507 0.03760877
0000a0 d6 68 e4 be db f3 c3 3e 01 ea aa be ec 5b f6 be
       -0.44611233 0.38271984 -0.33381656 -0.48117006
0000b0 7d b5 17 bf f6 09 14 bf f0 72 2c 3f 78 44 1a 3f
       -0.59261304 -0.578277 0.6736288 0.60260725
0000c0 24 33 b7 be 70 b3 80 be 51 13 63 3f 99 2c 15 bc
       -0.35781205 -0.251369 0.8870135 -0.009104871
0000d0 48 95 fd 3e 80 46 be 3d ea ed 80 bd 77 aa 31 3e
       0.49527955 0.092907906 -0.062953785 0.17350183
0000e0 95 11 61 3f e3 db fa bd b6 1e 27 bf 26 88 32 3e
       0.87917453 -0.12248971 -0.65281236 0.17434749
0000f0 a2 ae a3 be 39 b7 9e 3e ff 98 8c 3f 6b 22 4e 3f
       -0.31969172 0.30999163 1.0984191 0.8052127

fc2.weight f4 [32, 64]
000000 8a 58 cc bc 80 20 45 bc 00 09 d6 bb 50 62 88 3d
       -0.024944562 -0.012031674 -0.0065318346 0.066593766
000010 40 a1 4c bc ac 8d fe 3d 88 1b 74 bd eb 35 d5 bd
       -0.012489617 0.124293655 -0.05959657 -0.10410675
000020 29 87 87 bd a4 ea 1d bd 50 2f 0e be ef 38 1f bd
       -0.06617577 -0.03855385 -0.13885236 -0.038872655
000030 08 d0 cb 3a b4 59 be bd ae 70 a5 bd d1 9f a9 3d
       0.0015549669 -0.09294453 -0.080781326 0.08282436
000040 23 e4 a4 3b 45 8f 0c be a0 e0 99 bd 59 99 5c 3d
       0.005032079 -0.13726528 -0.07513547 0.05385718
000050 d8 6e a3 bd f6 e3 83 bc 7e a5 bd 3d 7c 8e 6a bd
       -0.07980126 -0.016099911 0.09260081 -0.05726479
000060 98 ee b1 3c 92 a3 aa 3d f2 be 78 bc f9 7d 89 bc
       0.021720216 0.0833198 -0.015182244 -0.016783701
000070 40 07 42 bc 93 a1 66 bd 83 a8 98 bc a7 2f 86 bd
       -0.011842549 -0.056306433 -0.01863504 -0.06552058
000080 b4 f6 1c bd 94 d2 e8 bd 66 86 aa bb bb 28 95 3d
       -0.038321212 -0.113682896 -0.00520401 0.07283159
000090 96 4a 97 bd 83 da 17 3d b0 54 09 bd bf 57 da bd
       -0.07387273 0.037073623 -0.03352803 -0.106612675
0000a0 a4 66 5c bd a8 a0 b0 bd 7c 1e 09 be b8 82 df bc
       -0.053808823 -0.08624393 -0.13390535 -0.027284011
0000b0 1b a7 c4 bd 19 03 23 bd 20 d5 3c bd b5 b2 80 3d
       -0.09602185 -0.039797876 -0.04610169 0.06284086
0000c0 fc 09 3c bd 44 f6 2f bd 88 9a 05 be 80 d8 d2 bb
       -0.04590796 -0.042959467 -0.1304723 -0.0064345
0000d0 62 e9 f0 bd ee 3c d3 bd 18 65 fa 3c c4 87 8b bd
       -0.11763264 -0.10314356 0.030565783 -0.068130046
0000e0 27 32 6b bb 62 dd da 3c b8 61 87 bd d1 0c 35 bd
       -0.0035888047 0.026716892 -0.06610435 -0.044201676
0000f0 00 79 f2 bd 12 13 51 3d 9a 97 8b 3d 97 60 a4 3d
       -0.11839485 0.051043577 0.06816025 0.080262356
000100 50 4f d2 3d 16 4b ec bd 00 6a 84 3d 40 dc 33 3c
       0.10269034 -0.11537759 0.064655304 0.010977805
000110 30 92 d4 bd 64 2f fc bd 8a 8d 9e bd 5e b5 f8 3d
       -0.103794456 -0.123137265 -0.0774184 0.12143968
000120 d0 f0 72 bc 6c e7 12 bd b8 37 73 bd e0 8e 61 bc
       -0.014827922 -0.035865232 -0.05937931 -0.013766974
000130 60 f3 fb bb 00 74 94 3a c8 be dd bd 9c 26 1b bd
       -0.0076889247 0.0011326075 -0.10827404 -0.037878618
000140 d0 b1 13 3d 30 d5 a6 bd c0 2a 38 3c 82 c6 a8 bd
       0.036058247 -0.08146131 0.011240661 -0.08240987
000150 00 d0 83 ba b0 1a 92 3c 40 04 25 3d 64 8d fa bd
       -0.0010056496 0.017834991 0.040287256 -0.12233999
000160 88 fa 21 bd 54 43 a7 3d 30 15 1b 3c fc 21 07 3d
       -0.039545566 0.08167139 0.009465501 0.032991394
000170 fc 1e fe bd 00 95 1b bc 90 07 9e bd da 92 90 bd
       -0.124082536 -0.009495974 -0.07716286 -0.0705926
000180 e2 47 85 3d 50 6f 46 3d 60 c6 02 bc a4 ec e5 bd
       0.06507851 0.048446 -0.007981867 -0.11226776
000190 0c 12 ad bd 2c 9a 26 bd c0 71 ce 3b f4 90 91 bd
       -0.08450708 -0.040674374 0.006300181 -0.07107726
0001a0 68 ab 95 3c f8 64 6e bd 3c 57 cf bd f0 10 aa bd
       0.01827021 -0.05820176 -0.101240605 -0.08304012
0001b0 68 15 15 3d b4 76 8b bd 1c 3f 09 3d 26 c9 d1 3d
       0.036397368 -0.0680975 0.03350745 0.10243444
0001c0 ac 72 40 3d cc bb ec bd 48 da 21 bd 48 fd b0 bc
       0.04698436 -0.11559257 -0.03951481 -0.021605149
0001d0 e0 8b b4 bb 20 31 03 3d e2 0b 98 3d 3a 14 99 bd
       -0.0055098385 0.03202927 0.074241415 -0.07474561
0001e0 1a 61 a5 bd c0 40 86 bb 62 71 da bd 7c ec 1e bd
       -0.08075161 -0.0040970743 -0.10666157 -0.038799748
0001f0 7a c1 f9 3d 0a db 95 3d f4 8b 52 bd 40 70 b1 bd
       0.12195106 0.07317169 -0.051403 -0.08663988
000200 16 04 cf bf c0 75 a4 3d 4e 0f cf 3f c1 3b 11 c0
       -1.6173122 0.080302715 1.6176546 -2.269272
000210 5d 3b 6b 3f 8b c4 5f 3f 7c 4e fc 3e c1 32 4b bf
       0.91887456 0.87409276 0.4927863 -0.7937432
000220 8c f0 21 bd 61 13 8f 3e 6a c1 29 bf ea 3a b5 3e
       -0.039536044 0.27944472 -0.6631075 0.3539651
000230 61 2b 6f bf 52 c1 a7 bd ee e0 84 bd eb 14 a9 bf
       -0.93425566 -0.0819117 -0.064882144 -1.3209509
000240 cb 88 a4 bf c0 2b c0 bf fc c7 ec be be 5a 9d be
       -1.2854246 -1.5013351 -0.46246326 -0.30733293
000250 a1 f0 2b be 80 34 0e 3c 90 3c ab 3d d0 d3 a2 3e
       -0.16791011 0.008679509 0.08361161 0.31802225
000260 3c 36 87 be 25 bc 6c 3e 23 3e 91 bf a8 e2 79 3e
       -0.26408565 0.23118646 -1.1347088 0.24402869
000270 0c 2b e1 3d ff 93 02 3e ab 6b 3e 3e b2 c2 47 bf
       0.10994539 0.12751769 0.1859576 -0.78031456
000280 08 f0 3e 3d 7d 70 1c 3f 6b 02 f7 3e c7 80 79 bf
       0.04661563 0.61109143 0.48244032 -0.97462124
000290 5b 08 0b c0 30 76 67 bf 14 a2 c8 3f 42 75 2d 3e
       -2.172385 -0.90414715 1.5674462 0.16939262
0002a0 47 7a a9 3f e6 71 93 bf 46 80 a0 3e 44 7c 13 3f
       1.3240441 -1.1519134 0.31347865 0.5761149
0002b0 4a 2e 2c 3f 99 62 10 3f f0 e5 d3 bd 86 dc 19 bf
       0.6725813 0.5640045 -0.103465915 -0.6010212
0002c0 14 ef 87 bd d0 b1 d3 bd d6 3a e6 be e8 91 77 bf
       -0.066373974 -0.103366494 -0.44966763 -0.9670701
0002d0 fd b7 39 be c7 d0 6b bf ce b2 92 3f 52 97 89 bd
       -0.18136592 -0.92115444 1.1460817 -0.06718315
0002e0 99 7b d4 bf 06 61 04 bf d4 0a 08 3f 6b 79 d5 bd
       -1.6600219 -0.51710546 0.5314152 -0.10423549
0002f0 0c 47 c5 3e a9 7d 21 bf e2 7f 9e bf 7c 79 21 bf
       0.38530767 -0.6308237 -1.2382777 -0.63075995
000300 27 2c c8 3e 80 af ff bc cb 5a c1 3f 7f c6 fb 3e
       0.39096186 -0.031211615 1.5105833 0.49174878
000310 a3 1e 63 3f 7a 99 a2 3e 00 30 dc be 4e 19 38 3e
       0.8871862 0.31757718 -0.4300537 0.17978403
000320 4c 6e 34 bd 87 22 f2 3d 08 81 08 3d aa 5f 29 be
       -0.0440505 0.11822992 0.03332618 -0.16540399
000330 f3 4b 6f 3e c1 db 9f 3c 28 96 b6 3d de f6 09 3f
       0.23368816 0.019513967 0.08915359 0.53892314
000340 62 9b b2 be 82 86 f7 3e 94 be 15 bf f7 26 18 bf
       -0.34884173 0.4834481 -0.58493924 -0.59434456
000350 90 54 3e 3c 33 33 b5 bd be 8d c3 3d 03 20 97 bd
       0.011616841 -0.08847656 0.095485196 -0.073791526
000360 82 87 06 40 4c 9d 5c be 14 6f 38 3e 31 07 71 bf
       2.1020207 -0.21544379 0.18011123 -0.941516
000370 dc 0a f3 bd 4b 47 d4 be f1 9e 0c bf 69 96 be 3e
       -0.11867306 -0.41460642 -0.54930025 0.3722413
000380 94 59 3c 3d ac 6b 1f 3e 77 b3 cb be de 1e ab 3d
       0.045983866 0.15568417 -0.39785358 0.08355497
000390 2c e5 9a 3e b0 88 af 3e 54 14 c8 3f 65 e9 0f bb
       0.3025297 0.34283972 1.5631204 -0.0021959182
0003a0 80 fe 22 3e 13 aa 03 bf f5 2c 44 be 19 59 2c bf
       0.15917397 -0.5143139 -0.19157775 -0.6732345
0003b0 90 df 2f bf 7c b2 a0 be e1 97 bd 40 09 bb 6b 3e
       -0.68700504 -0.31386173 5.92479 0.23020567
0003c0 7c 3f 9e 3d 18 90 af bd d3 cd 27 3e 65 3b 24 bf
       0.077269524 -0.085724056 0.1638711 -0.6415313
0003d0 9b 72 47 3e 47 67 2c 3e 51 77 8c 3f 70 2b 20 3e
       0.19477312 0.16836272 1.0973912 0.1564157
0003e0 61 0e 58 3e 5d ad 39 be 03 0e a0 be ca 31 04 be
       0.21099235 -0.18132539 -0.3126069 -0.12909618
0003f0 87 88 8a be 5e 95 0e be 54 d3 f0 3d 35 88 1f 3e
       -0.27057287 -0.13924167 0.11759058 0.15579303

fc2.bias f4 [32]
000000 a1 44 c3 3d 46 bc 95 bd 4f 5c 9a be c5 77 be 3d
       0.09534574 -0.07311301 -0.3014855 0.09300188
000010 50 99 ea bd d2 a5 5b 3e de ad 2e be f8 4d 6e 3e
       -0.11455023 0.21449974 -0.17058513 0.2327193
000020 5c 93 d5 3c ec 9c 35 bd 9e fb 1b 3f a1 2e 1e be
       0.026071243 -0.044339105 0.6093081 -0.15447475
000030 bd a3 6a 3e d5 e7 bb 3d b6 83 61 3e e9 73 90 3d
       0.22914024 0.09175078 0.220229 0.07053358
000040 61 ee 29 3d ee 80 20 3c 08 0d be 3d 4d dc 3d bd
       0.0414871 0.009796364 0.09279829 -0.046352673
000050 45 d5 1e 3e 79 45 8e bd 55 38 86 bd 77 2a b7 3a
       0.15511043 -0.069468446 -0.06553713 0.0013974448
000060 98 cd eb bd ca 9f cd 3c 2f e7 8c 3e ef d2 ac bd
       -0.11513823 0.025100607 0.2752013 -0.0843867
000070 9c 0a 81 be 43 87 b0 3d 6a 52 c6 3e 5c 35 4f 3e
       -0.25203407 0.08619549 0.38734752 0.20235199

fc3.weight f4 [1, 32]
000000 57 64 0f 3e ef b1 ba 3d fe f5 e9 c0 3d be 3a c0
       0.1400312 0.091159694 -7.3112783 -2.9178612
000010 fa 31 1c 3e 63 67 43 c0 68 a2 4e c0 7e c2 3f c0
       0.1525344 -3.0531852 -3.2286625 -2.9962459
000020 8b ae a5 3d 47 8a 3e 3d 17 f7 99 3f 70 d7 5f bb
       0.08089932 0.04651859 1.2028531 -0.003415551
000030 07 98 3c c0 23 80 2c c0 f2 cd 20 c0 9d af 50 c0
       -2.946779 -2.6953208 -2.51257 -3.2607186
000040 4d e2 65 c0 be 27 1f 3e bc 2f c8 3d 43 80 c2 c0
       -3.5919373 0.15542504 0.097747296 -6.078157
000050 0a 56 3a c0 67 9d 3b 3d 4b 46 1d 3b 9c b5 67 bc
       -2.9115014 0.045804407 0.0023998197 -0.01414242
000060 ac 6e 72 bd 9f 09 49 3d 86 46 1e c0 a9 e3 1d 3c
       -0.059187576 0.04908144 -2.4730544 0.009636798
000070 2a 70 e7 c0 38 76 64 c0 80 24 a6 3f 58 60 51 c0
       -7.232442 -3.5697155 1.2979889 -3.2715054
